…
    "4": "LABEL_4"
  },
  "init_std": 0.02,
  "label2id": {
    "LABEL_0": 0,
    "LABEL_1": 1,
    "LABEL_2": 2,
    "LABEL_3": 3,
    "LABEL_4": 4
  },
  "layer_norm_elementwise_affine": true,
  "layerdrop": 0.0,
  "max_position_embeddings": 2048,
  "model_type": "opt",
  "num_attention_heads": 16,
  "num_hidden_layers": 24,
  "pad_token_id": 1,
  "prefix": "</s>",
  "torch_dtype": "float16",
  "transformers_version": "4.30.2",
  "use_cache": true,
  "vocab_size": 50272,
  "word_embed_proj_dim": 512
}

OPTForTokenClassification(
  (transformer): OPTModel(
    (decoder): OPTDecoder(
      (embed_tokens): Embedding(50272, 512, padding_idx=1)
      (embed_positions): OPTLearnedPositionalEmbedding(2050, 1024)
      (project_out): Linear(in_features=1024, out_features=512, bias=False)
      (project_in): Linear(in_features=512, out_features=1024, bias=False)
      (layers): ModuleList(
        (0-23): 24 x OPTDecoderLayer(
          (self_attn): OPTAttention(
            (k_proj): Linear(in_features=1024, out_features=1024, bias=True)
            (v_proj): Linear(in_features=1024, out_features=1024, bias=True)
            (q_proj): Linear(in_features=1024, out_features=1024, bias=True)
            (out_proj): Linear(in_features=1024, out_features=1024, bias=True)
          )
          (activation_fn): ReLU()
          (self_attn_layer_norm): LayerNorm((1024,), eps=1e-05, elementwise_affine=True)
          (fc1): Linear(in_features=1024, out_features=4096, bias=True)
          (fc2): Linear(in_features=4096, out_features=1024, bias=True)
          (final_layer_norm): LayerNorm((1024,), eps=1e-05, elementwise_affine=True)
        )
      )
    )
  )
  (dropout): Dropout(p=0.1, inplace=False)
  (classifier): Linear(in_features=512, out_features=5, bias=False)
)
Epoch 51/100, Loss: 0.2834
Epoch 52/100, Loss: 0.1990
Epoch 53/100, Loss: 0.1728
Epoch 54/100, Loss: 0.1341
Epoch 55/100, Loss: 0.1226
Epoch 56/100, Loss: 0.1187
Epoch 57/100, Loss: 0.1164
Epoch 58/100, Loss: 0.1053
Epoch 59/100, Loss: 0.0960
Epoch 60/100, Loss: 0.0913
Epoch 61/100, Loss: 0.0939
Epoch 62/100, Loss: 0.0981
Epoch 63/100, Loss: 0.0877
Epoch 64/100, Loss: 0.0745
…
